OpenFOAM-Extension/tutorials/heat_transfer/Model_Training/emissivity.onnx (onnx, 6908 bytes, 5 tensors)

linear_tanh_stack.0.weight f4 [32, 1]
00000000: 516b bc3c 1d17 afbc 7260 4abd 8b36 4a3d
00000010: dfca 443d 1adb 63be 00ed 493d 3dcd 433d
00000020: 27cd 253d 7945 4fbd 7b6c af3c ad3e 62be
00000030: 5f04 5dbe 83b9 48bd 12c8 45bd 0ec6 463d
00000040: 18a4 48bd e50c b1bc 603a 483d 0c35 b7bc
00000050: a18b 483d 6226 b83c 0108 64be 17dc 493d
00000060: a04b 49bd 16ae bcbc e4cd 463d 0df8 afbc
00000070: fe5d 5dbe 043f b1bc e0fb 493d 7a14 15bf
0.023000391 -0.021373326 -0.049408384 0.049368422 0.048045035 -0.2225155 0.049298286 0.047803152
0.04047885 -0.050603364 0.021414032 -0.22094221 -0.21583699 -0.049005043 -0.048286505 0.048528723
-0.048984617 -0.021612594 0.048883796 -0.022364162 0.048961286 0.02247924 -0.22268678 0.04928216
-0.049144387 -0.02303223 0.048536196 -0.021480585 -0.21617886 -0.021636494 0.049312472 -0.5823437

linear_tanh_stack.0.bias f4 [32]
00000000: ae49 e9be cf83 433e e6e8 a83c a4ce a9bc
00000010: deee c8bc c259 e03d e48c abbc 53cf cdbc
00000020: 99c4 fabf ed0c 8c3c b61d 62be 0d5a d23d
00000030: a462 a83d 7b32 b23c 5e30 c33c 5439 bdbc
00000040: 5a10 b33c c232 8e3e 3538 b5bc 785a c63e
00000050: 0359 b3bc e41e cdbe 96ee e13d 65ba abbc
00000060: c810 af3c 25e9 ea3e df34 bdbc eea9 7b3e
00000070: 97fb aa3d 5eab 903e 9a2f abbc 6d6f 6d3d
-0.45564026 0.1909325 0.020618867 -0.020728417 -0.024527963 0.1095462 -0.020941205 -0.025123274
-1.9591247 0.017096007 -0.22081646 0.10271082 0.08221939 0.021752587 0.023826774 -0.023098625
0.021858383 0.277731 -0.022121528 0.38740897 -0.02189303 -0.4006263 0.11031835 -0.020962903
0.021370307 0.45881 -0.0230965 0.24576542 0.08348768 0.28255743 -0.020896722 0.057967592

linear_tanh_stack.2.weight f4 [32, 32]
00000000: 842e 713e fb16 eabd 55c6 6e3d ede2 6dbd
00000010: 324f 4ebd a322 c93d a3f6 6bbd 499a 48bd
00000020: 11f0 863f 1de1 843d 410d 033e 5576 c93d
00000030: 658b ca3d 914e 653d 0223 543d 64c3 59bd
00000040: 9cc8 643d b678 1dbe a58b 62bd 616e 50be
00000050: 5e2d 64bd 18b9 563e d8d6 c83d b1ed 6bbd
00000060: 176e 683d 30b7 72be 8f83 5abd 26bf 0ebe
00000070: 7494 ca3d 43b4 1fbe 620e 6cbd 169c 0e3e
00000080: 77a1 8a3d d093 4dbd 0a08 63bd a21f 633d
00000090: eb22 663d 0ddc 253d 8251 633d 3f78 663d
000000a0: 9a36 a5b8 0c94 5fbd 1c1e 593d 8d1b 1f3d
000000b0: 548a 0a3d 7dfb 63bd c89e 65bd 5d0b 653d
000000c0: 861b 64bd f86c 6cbd 604c 643d b45d 84bd
000000d0: 0a1c 643d efb7 853d aa9a 263d e350 633d
000000e0: 87ad 63bd 8be1 8abd 890e 653d d208 62bd
000000f0: dfd7 0b3d 04e9 6dbd 9946 633d 50cb b0bd
00000100: 73bc a83d 01c5 72bd b38e 78bd 7eac 783d
00000110: ec86 7c3d fb52 7b3d d1eb 783d 80f6 7c3d
00000120: 330a f43a 6b37 74bd 3ac9 803d d906 733d
00000130: 1d9f 593d 45c3 79bd 20dc 7bbd 711e 7b3d
00000140: 5bec 79bd 7441 8dbd 812a 7a3d 4107 a0bd
00000150: c2ec 793d ebe0 a13d 393d 7c3d b9ea 783d
00000160: 4e60 79bd ba17 a9bd 8122 7b3d 7386 86bd
00000170: a53d 5b3d a338 8ebd 19de 783d dc85 c4bd
00000180: a25a d1bd 7e13 923d b316 883d 302a 88bd
00000190: f2c0 8abd fa01 b5bd 0c55 88bd 2809 8bbd
000001a0: 1536 c7bc c82f 853d f9d1 9bbd 86a0 afbd
000001b0: f009 9fbd 31e3 883d 934c 8a3d 12cb 89bd
000001c0: 0c01 893d e939 ac3d 1b29 89bd 1b51 c53d
000001d0: adff 88bd 70d8 c7bd 7c98 b5bd c952 88bd
000001e0: 00a2 883d fdda d13d 9bce 89bd be5d a33d
000001f0: 421a a0bd fb7f ad3d a94b 88bd af5d ec3d
00000200: ac9c 4c39 f3a1 9638 4ee0 8cb9 8bec 8c39
00000210: 254c 4e38 3024 c237 5e12 8d39 b290 4e38
00000220: 5e89 8139 8b48 1b38 3e36 97b8 f02a 87b8
00000230: da4c 58b8 a5ba 3038 21ec 5939 dee0 4f39
00000240: c956 37b9 1ca0 7439 16c0 8d39 09ac f8b9
00000250: 0af5 30b8 0297 4139 5086 87b8 a813 30b8
00000260: 2348 8db9 3782 4eb9 00d1 6038 fe7a 3939
00000270: 7ce6 c637 f0be 0139 f10f 8d39 6606 a238
00000280: b143 f83d a442 72bd d262 3a3d 08ee 39bd
00000290: 2eed 26bd 475c 473d b705 39bd f2ea 22bd
000002a0: a6e1 1b3f 4999 4a3d 69a3 853d 73b2 493d
000002b0: d83d 503d ebd0 343d 6d82 2a3d 4db1 2dbd
000002c0: 53a8 343d 206f 9ebd d6d7 32bd 86fa d3bd
000002d0: 6621 34bd cbe0 da3d b835 473d 54ad 38bd
000002e0: afdd 363d dafb f9bd beeb 2dbd 9e47 90bd
000002f0: 640e 503d f5a0 a0bd 7b0d 39bd 4784 0e3e
00000300: 1057 6b3e 6482 e5bd 0f46 6a3d a696 69bd
00000310: bf59 4bbd 1c36 c43d c72d 68bd fec2 45bd
00000320: ed20 843f cca1 823d e84b 003e 0c7f c43d
00000330: dbd5 c53d 0b60 613d 5545 513d 0f36 56bd
00000340: c7fe 603d 60d0 19be 91ec 5ebd b15e 4bbe
00000350: 9b81 60bd 1682 513e c1e8 c33d 4101 68bd
00000360: 1474 643d c6d6 6cbe 1e8f 56bd d790 0bbe
00000370: 90ec c53d c6f7 1bbe 849b 68bd e25b 0e3e
00000380: 6d68 173d 2546 f7bc 98cb 2fbd 31d5 2f3d
00000390: 14fe 303d 903d aa39 b0ea 2f3d 5012 313d
000003a0: e169 7abb 9d3e 2ebd 3ffb 003d c197 5439
000003b0: 1a1f 3b38 522e 30bd 00cf 30bd 8396 303d
000003c0: f03d 30bd 348d 09bd ae4f 303d 8934 14bd
000003d0: 393c 303d 8702 153d 56b2 c739 e8e8 2f3d
000003e0: eb0f 30bd f180 17bd f098 303d bb05 05bd
000003f0: 108b c137 cd2e 0abd e7e5 2f3d 35cd 8ebd
0.235529 -0.114301644 0.058294613 -0.05807774 -0.050368495 0.098210596 -0.057608258 -0.048975263
1.0542012 0.064882495 0.12798025 0.09837023 0.09889869 0.05598313 0.0517912 -0.053164855
0.05585538 -0.15378079 -0.055308957 -0.20354606 -0.055707328 0.20969045 0.09806603 -0.057599727
0.056745615 -0.23702693 -0.05334812 -0.13940105 0.098915964 -0.15596108 -0.057630904 0.1392673
0.06769078 -0.050189793 -0.05542759 0.05545009 0.056185644 0.04049306 0.055497654 0.05626702
-7.8779834e-05 -0.054584548 0.05300723 0.038844634 0.033823326 -0.05565976 -0.05605963 0.05591904
-0.05569031 -0.05772111 0.0557369 -0.06463185 0.055690803 0.06529223 0.040674843 0.05549706
-0.05558541 -0.067813 0.055922065 -0.055184193 0.034141418 -0.05808355 0.05548725 -0.08632529
0.08239069 -0.05926991 -0.060682964 0.060711376 0.06165211 0.061358433 0.060771767 0.06175852
0.0018618762 -0.059623163 0.06288381 0.059332702 0.053130258 -0.06097724 -0.061489224 0.061308328
-0.06101642 -0.0689725 0.06107569 -0.078138836 0.061016805 0.07904228 0.061581824 0.060770724
-0.06088286 -0.082564786 0.061312202 -0.06568613 0.053525586 -0.06944396 0.060758684 -0.09595844
-0.10222365 0.07132624 0.066449545 -0.066486716 -0.06775083 -0.088382676 -0.066568464 -0.06788856
-0.02431778 0.06503254 -0.076084085 -0.08575539 -0.07765567 0.06683958 0.067528866 -0.06728186
0.06689653 0.08409483 -0.06697293 0.0963461 -0.06689391 -0.09758079 -0.08866975 -0.06656415
0.06671524 0.10246847 -0.0672886 0.07976864 -0.07817508 0.08471676 -0.06655056 0.11541306
0.00019513321 7.182723e-05 -0.0002687 0.0002687912 4.9185142e-05 2.3143453e-05 0.000269073 4.9248985e-05
0.00024707144 3.702244e-05 -7.2103445e-05 -6.4452994e-05 -5.1569987e-05 4.2135496e-05 0.00020782698 0.00019824828
-0.0001748457 0.00023329299 0.0002703673 -0.00047430422 -4.218988e-05 0.00018462169 -6.462319e-05 -4.1979976e-05
-0.00026947362 -0.000196942 5.3600408e-05 0.00017688793 2.3710767e-05 0.00012373528 0.00026905493 7.725954e-05
0.12122286 -0.059145585 0.0455044 -0.04539302 -0.040753536 0.048671987 -0.045171466 -0.039774843
0.6089119 0.04946259 0.06525309 0.049242448 0.05084023 0.044144552 0.04162829 -0.042405415
0.04410584 -0.07736039 -0.04366287 -0.10350518 -0.043977164 0.10687407 0.048635215 -0.045087174
0.044645008 -0.1220624 -0.04246115 -0.0704491 0.050794974 -0.078432 -0.04517887 0.13917647
0.2298243 -0.11206511 0.05719572 -0.057028435 -0.049646135 0.09580633 -0.05668428 -0.048281662
1.0322548 0.063785166 0.12528956 0.09594545 0.0965993 0.055023234 0.05109151 -0.052297648
0.054930475 -0.15020895 -0.054424826 -0.1986034 -0.0548111 0.2045978 0.09565879 -0.05664182
0.055774763 -0.23128805 -0.05238258 -0.13629471 0.09664261 -0.15231237 -0.056788936 0.13902238
0.036964823 -0.030184815 -0.04291877 0.042927925 0.043211058 0.00032470794 0.042948425 0.043230355
-0.0038210081 -0.04254018 0.031489607 0.00020274428 4.461324e-05 -0.043012924 -0.04316616 0.04311229
-0.04302782 -0.033581927 0.04304474 -0.036182914 0.043026183 0.036379363 0.00038089108 0.042946726
-0.04298393 -0.036988202 0.043114603 -0.032476168 2.3072149e-05 -0.03373604 0.04294386 -0.06972734

linear_tanh_stack.2.bias f4 [32]
00000000: cd60 f4bd b507 453d 5d72 4f3d ba49 71bd
00000010: a27b e6b8 530f d0bd 261a f2bd 230b 363d
00000020: 02f0 743a 6e05 1638 a102 053a eaa2 2d3d
00000030: 0eae 4abd b3cd a13c 5c21 d0b7 7298 2fbd
00000040: 8540 9cb9 00ec a2b7 440d 733d 7f25 44bd
00000050: 4087 053d 1bd7 553d 9c04 45bd 1e85 2d3d
00000060: e0de 47bd 1ece 673d 3c0a e5bd 0263 0339
00000070: 21c2 423d f8b1 fe37 581a f038 aae7 433d
-0.11932526 0.048103053 0.050646175 -0.0589082 -0.00010990283 -0.10159173 -0.11821394 0.044444215
0.0009343625 3.5767844e-05 0.0005073939 0.042391695 -0.049482398 0.019751405 -2.4811066e-05 -0.042869993
-0.0002980271 -1.9421801e-05 0.059338823 -0.04788732 0.032599688 0.052207094 -0.0481001 0.04236328
-0.048796535 0.056593053 -0.11183593 0.00012530017 0.047548417 3.0362033e-05 0.00011448999 0.047828354

linear_tanh_stack.4.weight f4 [1, 32]
00000000: b37d 88bf db96 9e3e 6893 bf3e af87 f4be
00000010: 8d07 69b7 c91e 25bf 5711 85bf 78db 433e
00000020: cff6 93b9 eaec ec36 a874 9937 7b15 303e
00000030: 91b0 b3be eb8f 8d3d 76e8 0538 6b25 34be
00000040: 7b33 92b7 746d 1d39 797e f73e 90bc 98be
00000050: be20 6cbf 0e1d cc3e 0104 9ebe eddb 2f3e
00000060: af3d aabe 0e2a ca3e ccd1 63bf d43a 64b7
00000070: e449 8f3e 32f4 8837 de9c 46b8 63d6 973e
-1.066336 0.3097447 0.3741715 -0.47759768 -1.388964e-05 -0.645001 -1.0395917 0.1912669
-0.00028221912 7.0609285e-06 1.8293344e-05 0.17195694 -0.35095647 0.06912216 3.1926167e-05 -0.17592399
-1.7428529e-05 0.00015013461 0.48338678 -0.29831362 -0.9223746 0.39865917 -0.3086243 0.17173739
-0.33250186 0.3948521 -0.88992 -1.3603556e-05 0.27986062 1.6326176e-05 -4.7352973e-05 0.29655752
