OpenFOAM-Extension/tutorials/turbulent_channel/Cases/Re_180_ONNX/graph/eddyviscosity.onnx (onnx, 8298 bytes, 7 tensors)

linear_tanh_stack.0.weight f4 [24, 2]
000000 4a 08 8d be 96 f2 96 bd f9 bd 21 bf cd a0 a6 be
       -0.27545387 -0.07370488 -0.631805 -0.32544556
000010 86 70 38 bf c4 63 9b 3e 11 5e 0b bf 91 70 4e b8
       -0.720467 0.30349553 -0.5444041 -4.9219063e-05
000020 8b e2 c2 b8 0c 5f 81 b7 35 89 d7 3e ec c6 a4 38
       -9.292838e-05 -1.5422258e-05 0.42096868 7.8571815e-05
000030 eb a3 de b8 a7 fb d8 38 3e 6c c0 b8 88 02 05 b9
       -0.00010616317 0.000103465565 -9.175435e-05 -0.00012684811
000040 e5 bb 46 39 9e c1 2e 39 95 f1 40 be e8 45 10 3e
       0.00018952748 0.00016666061 -0.18842156 0.14089167
000050 c2 86 af 3e f0 7c 2f 3e 9f f1 28 bf b9 98 94 bd
       0.342825 0.17137504 -0.65993685 -0.07255692
000060 c9 7c 54 3d d1 ce 33 be 02 8f d6 b7 c0 81 80 b8
       0.051876817 -0.17559363 -2.5577381e-05 -6.1276834e-05
000070 39 7d 7b 3c 32 90 4b 40 44 92 f1 37 af 8d 4f b8
       0.01534968 3.180676 2.8797549e-05 -4.94846e-05
000080 43 a2 3d 38 45 3c e4 39 c9 ec 1f 3e be d4 d3 bf
       4.521223e-05 0.00043532453 0.1561767 -1.6549299
000090 fc d3 0d 38 80 e3 a9 be 2c 17 ab bf a1 e6 16 3f
       3.3814445e-05 -0.3318138 -1.3366446 0.5894566
0000a0 f4 fb 15 bf 0f d7 1a 3d d5 da 84 37 84 a2 c3 37
       -0.58587575 0.037802752 1.5837528e-05 2.3321489e-05
0000b0 2c 0d 4f 37 00 00 98 36 32 bc 1d 37 f9 90 c5 39
       1.2341228e-05 4.529953e-06 9.401747e-06 0.0003768278

linear_tanh_stack.0.bias f4 [24]
000000 42 85 11 3e 2a f7 b2 3e c1 5e 44 3d 48 8f 01 3e
       0.1421099 0.34954196 0.047941927 0.12652314
000010 8d a9 5b bd f5 bc cc be 15 f8 e6 bd 74 d1 c9 37
       -0.053628493 -0.39987913 -0.11277787 2.4058601e-05
000020 80 34 65 b5 98 b5 03 3e 61 e3 6a be 09 59 5b 3e
       -8.5385545e-07 0.12862241 -0.229383 0.21420683
000030 fc fe 42 be 60 48 19 b7 3c 34 b8 bc b1 2f cd b7
       -0.19042581 -9.136362e-06 -0.022485845 -2.4460112e-05
000040 12 96 dd 36 8f 79 06 be 0a fd b7 bd ef 62 86 bd
       6.6037837e-06 -0.13132308 -0.0898381 -0.06561839
000050 6f f0 2b 3e b4 ad 6c 3d 10 56 0b b6 9e c5 82 37
       0.16790937 0.057782844 -2.076271e-06 1.558923e-05

linear_tanh_stack.2.weight f4 [24, 24]
000000 dc 44 af b8 c8 19 0f b8 ed ff 0c b8 d2 6d 12 39
       -8.357476e-05 -3.4117867e-05 -3.361695e-05 0.00013964556
000010 ea 8b 94 37 7d b4 d4 b7 3d d1 18 38 ce d9 99 b7
       1.7708127e-05 -2.5356416e-05 3.6434492e-05 -1.8340445e-05
000020 aa 5f cf b8 68 be 37 38 8d 40 0a b8 04 23 0a b8
       -9.888348e-05 4.380793e-05 -3.296188e-05 -3.2934375e-05
000030 1a ae a6 b6 df 6e 6a b8 58 d3 fb b7 73 31 86 38
       -4.9674536e-06 -5.5893204e-05 -3.0019946e-05 6.3988286e-05
000040 e5 98 73 b8 1b e6 99 b7 7b 89 62 b8 0c 55 5d 36
       -5.807811e-05 -1.8346173e-05 -5.4010638e-05 3.298107e-06
000050 ca 5f c4 37 26 05 e3 37 93 3c a9 b9 90 f2 5b 37
       2.3409626e-05 2.7062906e-05 -0.00032279323 1.3109893e-05
000060 b6 bd 0f 39 9c fc 14 39 1a 02 1f 39 82 6b b8 b8
       0.00013708216 0.00014208484 0.00015164205 -8.7938286e-05
000070 a1 59 a0 b8 1d 92 e6 37 96 71 17 b8 51 bc c4 38
       -7.646089e-05 2.7486176e-05 -3.610699e-05 9.381085e-05
000080 85 1f 0c b9 2a a5 92 38 e7 de 1d b9 02 96 47 38
       -0.00013363182 6.992587e-05 -0.00015055724 4.7585003e-05
000090 a2 c7 96 b7 58 1d 50 39 72 c9 0d b9 3a 90 ae 38
       -1.7974355e-05 0.00019847357 -0.00013521852 8.323831e-05
0000a0 14 32 12 39 b4 75 c5 38 5c 92 44 b9 62 74 60 38
       0.000139423 9.415616e-05 -0.0001874654 5.351415e-05
0000b0 bb 4f 2e b8 68 7b 32 b6 00 7e 57 b9 20 46 c6 38
       -4.1559088e-05 -2.6595899e-06 -0.00020550936 9.4544375e-05
0000c0 69 03 52 bd 64 7f 80 be 55 58 0e be ce 9c 05 be
       -0.051272783 -0.2509719 -0.13900883 -0.13048097
0000d0 56 83 ba 36 85 1e 01 3e 12 b3 ff 37 40 cb 7c 34
       5.5585215e-06 0.12609299 3.0481755e-05 2.3543271e-07
0000e0 57 ab 9b b8 de dc 75 ba 09 37 ac 3d 54 62 80 be
       -7.4228905e-05 -0.000937892 0.084089346 -0.25075018
0000f0 f8 81 4a 37 46 91 02 39 20 2a e7 b5 e8 c2 14 37
       1.2070399e-05 0.00012451885 -1.7223101e-06 8.866868e-06
000100 05 68 d8 37 c8 81 b9 b6 db 3c 11 38 c3 a1 9c bd
       2.5797644e-05 -5.528538e-06 3.462737e-05 -0.07648041
000110 bf 4a f1 bd 20 dd 4a 36 95 f1 fe 38 ec 12 62 b8
       -0.11781835 3.0229057e-06 0.00012156662 -5.390022e-05
000120 2f f4 91 b8 c5 92 15 38 2f f2 51 b8 f3 43 2e 38
       -6.9596215e-05 3.5661058e-05 -5.0055034e-05 4.1548115e-05
000130 66 2a 4a 37 98 1f 26 37 71 f3 ca 36 38 a4 b8 37
       1.205001e-05 9.901727e-06 6.0484094e-06 2.201098e-05
000140 32 53 f3 b7 17 e3 cc b7 b5 bc d0 b7 ff ba 7d 39
       -2.9006598e-05 -2.4424442e-05 -2.4883406e-05 0.00024197622
000150 62 99 33 b8 c7 92 02 39 f6 99 8d 37 df a3 7c 38
       -4.2819775e-05 0.00012452445 1.6880203e-05 6.02341e-05
000160 68 c4 b3 b7 de c9 77 b8 50 c3 8a b6 04 a8 85 b7
       -2.1429922e-05 -5.9077393e-05 -4.135458e-06 -1.5933074e-05
000170 02 a8 77 b8 6e 6c cb b7 1c e3 0b 38 25 65 8d b8
       -5.904586e-05 -2.4249977e-05 3.3351695e-05 -6.7422436e-05
000180 00 71 b8 33 4c ad 6e b8 60 1d 65 b6 00 15 99 b7
       8.588722e-08 -5.6905017e-05 -3.4140758e-06 -1.82488e-05
000190 69 d4 43 b8 0f b4 e3 b7 d8 30 3f b6 4a 87 b3 b7
       -4.6689445e-05 -2.7144355e-05 -2.8489649e-06 -2.1401462e-05
0001a0 70 a6 84 37 0b b0 58 38 00 3b 53 38 bf cd cb b8
       1.581313e-05 5.1662366e-05 5.036127e-05 -9.7181175e-05
0001b0 8d 8d b9 37 94 72 2b b9 51 3f 92 38 c3 d8 ed b7
       2.2119633e-05 -0.00016350514 6.973616e-05 -2.835354e-05
0001c0 66 40 b3 b7 5e b2 e9 b7 c9 a8 05 39 b3 d4 22 38
       -2.136845e-05 -2.7858823e-05 0.00012746746 3.88219e-05
0001d0 60 a7 5d 37 81 31 fd b7 64 9f ad 38 4d ab 5a 38
       1.32115965e-05 -3.0183002e-05 8.278972e-05 5.2134787e-05
0001e0 c9 b4 d9 3b 83 65 4e 3e 3c 4f ee 3d 91 ca dc 3d
       0.0066438657 0.20155911 0.116362065 0.10780824
0001f0 27 71 2a 38 1e a3 92 bd ee f0 7e 38 70 65 41 b7
       4.063654e-05 -0.071600184 6.0782702e-05 -1.1527314e-05
000200 e8 da 3d 36 66 12 ad 39 62 81 5e bd 44 27 3b 3e
       2.8290615e-06 0.0003301084 -0.054322608 0.18276697
000210 aa a5 98 b7 e6 f6 9d 39 48 7d 73 b8 38 ea be b6
       -1.8196955e-05 0.00030129327 -5.8052392e-05 -5.689708e-06
000220 95 b6 2c 38 c8 3c 15 b7 58 33 b6 36 94 cd 61 3e
       4.117804e-05 -8.895244e-06 5.43e-06 0.22051078
000230 ec fe ee 3d 00 c4 74 37 27 4c 91 b8 16 24 3e b8
       0.11669716 1.4589168e-05 -6.928323e-05 -4.5333138e-05
000240 8d 46 0c b8 38 67 d8 bd 06 76 df be 75 24 53 be
       -3.3444307e-05 -0.105665624 -0.43644732 -0.20619376
000250 4e 19 16 b8 30 ed a6 3c 96 c5 32 b7 fb 3b a0 b7
       -3.5786354e-05 0.020376772 -1.0655631e-05 -1.9101417e-05
000260 18 d4 e7 b8 bc be 51 bd fc 40 68 37 b2 cf 41 be
       -0.00011054444 -0.05120729 1.3843408e-05 -0.18926886
000270 b4 31 97 b8 7c c2 97 39 26 b4 2e bf 9a 7b df 37
       -7.209499e-05 0.00028945867 -0.68243635 2.6641228e-05
000280 b5 39 ca 39 25 60 60 3e 9b 76 db b8 e4 e0 2c bf
       0.00038571437 0.21911676 -0.00010464826 -0.67530656
000290 3e ae 3a be 60 54 8e b7 92 e1 09 39 e0 ec ac 37
       -0.1823053 -1.696701e-05 0.0001314937 2.0614301e-05
0002a0 ce 25 a5 b8 fa 5b c0 36 56 9a 8b 38 7e 75 d8 b7
       -7.874855e-05 5.7327534e-06 6.656784e-05 -2.5803918e-05
0002b0 4e 43 8a b8 b2 e7 35 b7 15 e8 31 b6 10 dc 18 b8
       -6.592889e-05 -1.08423865e-05 -2.6510145e-06 -3.6444573e-05
0002c0 ed 71 68 b7 ac 77 7f b8 5e a6 d7 37 d8 10 04 b9
       -1.3854803e-05 -6.090819e-05 2.5707468e-05 -0.00012594776
0002d0 fd 94 a0 b7 c7 61 69 b8 22 84 9c 37 46 3d 1d 38
       -1.9142864e-05 -5.564259e-05 1.8658178e-05 3.7488782e-05
0002e0 2c 6e 55 b8 80 17 f7 36 bf b7 99 b8 ab 20 27 b7
       -5.0885763e-05 7.3639094e-06 -7.329834e-05 -9.961582e-06
0002f0 06 fa a2 b7 fc c6 aa b7 88 35 09 38 46 d2 ac 38
       -1.9428331e-05 -2.0358239e-05 3.27132e-05 8.2407656e-05
000300 f7 29 91 38 1f ab e4 3d 5c 68 ec 3b b0 de e0 36
       6.921955e-05 0.11165451 0.007214589 6.7016445e-06
000310 0c 8d 2f 38 7f 90 43 bd 66 e6 28 38 78 99 37 b6
       4.185461e-05 -0.047745224 4.0268897e-05 -2.7358456e-06
000320 30 f2 32 b8 b7 e7 45 b8 b8 53 e0 36 e9 e1 17 3c
       -4.266406e-05 -4.718426e-05 6.6854664e-06 0.00927017
000330 24 11 08 38 98 5f a5 b8 dc 29 14 b8 8e 8a 02 38
       3.244089e-05 -7.885619e-05 -3.5324934e-05 3.1123454e-05
000340 b6 39 1a 38 f7 bd 87 38 df 87 2f b8 df 2e 89 3d
       3.677021e-05 6.472685e-05 -4.184979e-05 0.06698393
000350 92 8e 3d 3c d3 e6 49 b8 60 fb b0 b8 33 72 2d 37
       0.011569636 -4.8137106e-05 -8.439156e-05 1.0338193e-05
000360 28 7d 66 bd b0 99 a9 bd b0 ef f5 3d 64 1a 0f 39
       -0.056271702 -0.08281267 0.120086074 0.00013647374
000370 b1 41 ce 37 4c 50 94 37 60 b9 cd b5 fa 2e 83 b7
       2.4587704e-05 1.7680366e-05 -1.5327641e-06 -1.5638292e-05
000380 0c 92 ad b7 0f ae 03 b9 65 77 08 3e 5d 03 a7 39
       -2.0691215e-05 -0.00012557975 0.13326795 0.00031855228
000390 22 5b 7a bd de 52 8a 38 50 d1 52 3f 71 20 f7 37
       -0.061122067 6.595788e-05 0.82350636 2.9459801e-05
0003a0 56 8c 3f b7 b2 5a c8 be f0 45 90 bd 88 f1 33 3e
       -1.1417162e-05 -0.39131695 -0.070445895 0.17572606
0003b0 14 34 a1 3b 40 f6 79 b6 44 49 7b 37 6e 63 9f 38
       0.0049195383 -3.7247228e-06 1.4977824e-05 7.600231e-05
0003c0 b9 7d 53 be 9a 61 c6 be 45 16 17 be dc c1 91 be
       -0.20653428 -0.3874634 -0.14754589 -0.28468215
0003d0 b4 76 27 37 70 c3 8b 3e 86 82 04 3d 18 56 ef 36
       9.981613e-06 0.27297544 0.03235104 7.1327777e-06
0003e0 ee a5 95 b8 84 01 2b bb c0 9a 5d 3e 1f b4 dc be
       -7.1357805e-05 -0.0026093433 0.21641064 -0.4310617
0003f0 bd 56 56 b8 7c e5 b0 b7 77 45 e5 3c 7d 6f 6f b7
       -5.1102357e-05 -2.1087697e-05 0.027987225 -1.4271468e-05

linear_tanh_stack.2.bias f4 [24]
000000 f9 2a b4 b7 66 75 f2 b6 55 da 19 bd 0d 62 86 b6
       -2.1477683e-05 -7.225829e-06 -0.037561733 -4.004926e-06
000010 ee 5e 8f 36 69 5b 6f 3c 8e 11 d7 3d 13 4d 94 37
       4.2727834e-06 0.014609196 0.10501395 1.7678865e-05
000020 3d 0e 98 3c 81 ae 40 bd de de af bd 65 64 b4 b5
       0.018561477 -0.04704142 -0.085874304 -1.3440264e-06
000030 15 99 19 3e a4 fe 45 3d 32 44 53 b8 21 22 06 3d
       0.14999802 0.048338547 -5.0369832e-05 0.03274739
000040 84 fb 04 b8 36 e3 b1 36 94 65 11 b7 25 f8 0d 37
       -3.1705495e-05 5.301462e-06 -8.666324e-06 8.462031e-06
000050 74 6f cc b8 f1 b2 c1 b6 2e f6 9c b6 c4 44 a2 37
       -9.748238e-05 -5.7726797e-06 -4.6778214e-06 1.9343926e-05

linear_tanh_stack.4.weight f4 [24, 24]
000000 79 1e cc 38 38 6e 32 39 cc 62 4e 38 94 b7 95 b8
       9.733154e-05 0.00017016463 4.920624e-05 -7.139068e-05
000010 96 55 4b b8 1b ff fd 38 28 bf 29 b9 4f e5 8d 38
       -4.847868e-05 0.00012111497 -0.00016188307 6.766116e-05
000020 76 25 e8 37 48 c3 51 b7 52 42 4c b8 02 e2 20 b8
       2.7674e-05 -1.2502838e-05 -4.8699156e-05 -3.835746e-05
000030 17 51 1a 38 60 e3 b0 39 fe 39 83 38 2c da 95 b8
       3.6791982e-05 0.00033738744 6.257369e-05 -7.145511e-05
000040 39 8b 60 39 69 29 ea 38 42 d3 90 b8 be a2 b7 b9
       0.00021414169 0.00011165703 -6.905805e-05 -0.00035025732
000050 66 9e 4e b9 2d f8 5e b8 60 c3 03 39 08 4c 1f b9
       -0.00019704699 -5.3160056e-05 0.00012565916 -0.00015191745
000060 5a 8e 3a b8 a4 1a 2a 39 98 76 6c b7 20 4d 1a b8
       -4.447843e-05 0.00016222388 -1.4094308e-05 -3.678829e-05
000070 bd 0c 6d 38 6d e0 0f 39 a1 e5 9c 38 f2 f9 cb b8
       5.6517067e-05 0.00013721148 7.4814314e-05 -9.72635e-05
000080 b6 e9 cd b7 86 4c 8b b7 6c d4 51 39 1a 1b 55 b8
       -2.4546734e-05 -1.6605725e-05 0.00020010927 -5.0808398e-05
000090 38 f3 91 3c 73 dd 17 b8 48 3f d7 b8 60 e6 f2 b6
       0.017816171 -3.6207446e-05 -0.00010263786 -7.238981e-06
0000a0 40 7a 6d b7 f6 af 92 37 c4 e8 84 38 10 63 4a b6
       -1.4154764e-05 1.7486494e-05 6.3376065e-05 -3.0158008e-06
0000b0 d1 d7 92 38 f9 36 84 b8 7c 31 8a b8 26 55 47 37
       7.0020214e-05 -6.30449e-05 -6.58957e-05 1.18811495e-05
0000c0 b0 88 05 39 24 95 a0 b9 46 d0 9b b7 14 0a 48 b8
       0.00012734788 -0.00030628697 -1.8574425e-05 -4.76931e-05
0000d0 f1 64 b4 b7 41 0f 08 39 96 3e a9 39 80 12 56 38
       -2.1504677e-05 0.00012975653 0.00032280822 5.1038805e-05
0000e0 4c a6 2d b6 ce 1d 95 b7 4c 62 09 38 94 07 8e b8
       -2.5875806e-06 -1.7776063e-05 3.275489e-05 -6.772499e-05
0000f0 94 79 c4 b8 e8 fe fa b8 0e a6 61 38 e7 e7 0d b9
       -9.368654e-05 -0.00011968409 5.379883e-05 -0.00013533198
000100 6c e8 05 38 f6 67 80 39 eb 21 38 38 50 52 83 38
       3.192613e-05 0.0002449152 4.3900607e-05 6.261899e-05
000110 55 1d 98 b9 3a a1 bf 37 d8 a6 b7 b8 a8 d4 84 37
       -0.00029013553 2.2844051e-05 -8.757197e-05 1.5834652e-05
000120 52 b2 85 b7 a0 51 c1 b8 8e 1e 43 38 da db 9a b8
       -1.5937872e-05 -9.218161e-05 4.652008e-05 -7.384243e-05
000130 27 2e 46 b7 00 a2 54 38 3a 9d 1b b9 63 4b 4c 38
       -1.1812465e-05 5.0695613e-05 -0.00014840523 4.87076e-05
000140 e8 31 4e 37 e0 39 3e 37 f0 1f 6c b6 f0 9b 68 b7
       1.22901765e-05 1.1338358e-05 -3.518533e-06 -1.3864585e-05
000150 1a 47 80 37 27 9b ef b7 8a 26 36 b7 e2 57 53 38
       1.5291898e-05 -2.8563269e-05 -1.0857018e-05 5.0388167e-05
000160 ea e2 36 38 aa 20 02 b8 28 23 04 38 44 4f 71 b8
       4.360351e-05 -3.1024836e-05 3.1503994e-05 -5.75327e-05
000170 7a e5 85 b8 36 b4 a6 b7 18 63 ef 37 3e 50 1d 38
       -6.3846775e-05 -1.987266e-05 2.8537164e-05 3.750645e-05
000180 a6 97 5a b7 2c e5 6e b9 e4 18 d2 b7 71 68 a1 b8
       -1.3029121e-05 -0.00022782822 -2.5045541e-05 -7.696532e-05
000190 c3 83 26 b8 a8 7b c4 37 df ee 6a b9 60 e7 ff 37
       -3.9700197e-05 2.3422603e-05 -0.00022404965 3.0506111e-05
0001a0 e3 43 9e b7 fe 62 70 38 dc 18 2a b7 e4 8e 6c b7
       -1.886668e-05 5.7312653e-05 -1.0138578e-05 -1.40999655e-05
0001b0 ea 27 41 38 84 aa 28 38 83 6f f8 b8 f8 68 30 38
       4.605196e-05 4.0213126e-05 -0.00011846332 4.205943e-05
0001c0 21 ac 3c 38 6e 35 19 38 c2 db e4 b8 78 a3 3f b8
       4.4983e-05 3.6527803e-05 -0.0001091282 -4.569019e-05
0001d0 96 39 5b b8 b6 af 68 37 c0 18 4d 38 51 9f 26 b7
       -5.22673e-05 1.38691885e-05 4.889886e-05 -9.931465e-06
0001e0 41 28 1a 38 ac 23 a2 38 70 88 ad b8 78 5b 70 b8
       3.675395e-05 7.7314064e-05 -8.274696e-05 -5.7305646e-05
0001f0 c2 7e 18 b8 47 bd 47 b9 4c 54 27 b9 2d be 29 b9
       -3.6357676e-05 -0.0001904863 -0.00015957764 -0.00016187942
000200 22 1f 5d b9 20 65 86 37 c7 6d 8d 38 c8 e0 11 37
       -0.000210878 1.6021135e-05 6.7438516e-05 8.6950095e-06
000210 4c ea e1 b8 1a 77 21 b8 04 f4 3f b8 02 22 44 39
       -0.00010772477 -3.8496313e-05 -4.5765206e-05 0.00018704685
000220 7b 29 fd b8 88 a5 48 b7 8a 5c 4b b8 ff 0c bd b8
       -0.000120717064 -1.195947e-05 -4.8485155e-05 -9.014643e-05
000230 cb 09 ed 39 a3 b7 08 b8 84 15 f4 b7 54 9b e3 37
       0.0004521146 -3.259595e-05 -2.9097086e-05 2.7132839e-05
000240 c1 ac 9f b8 21 43 7b 39 c0 82 30 38 fd e1 b8 38
       -7.613889e-05 0.00023962233 4.208344e-05 8.815897e-05
000250 fd 8c 9b 38 e8 83 2c 39 b8 83 03 38 dc 06 0d b9
       7.417237e-05 0.00016452337 3.1355507e-05 -0.00013449363
000260 50 ec af 37 db 7a 86 b8 08 3c bf b7 7c ce 07 38
       2.0971667e-05 -6.4125015e-05 -2.2796929e-05 3.237881e-05
000270 b9 bb af b8 c4 73 2d b8 6d 61 61 b9 46 4e a6 b7
       -8.379616e-05 -4.135423e-05 -0.00021493966 -1.9825191e-05
000280 69 50 66 38 cb 3b 2d b8 e5 85 f8 38 1c 8a 5b b8
       5.491116e-05 -4.13021e-05 0.00011850501 -5.2342293e-05
000290 c4 32 0d 38 b0 86 97 b7 d3 cb a8 37 f4 63 42 38
       3.36643e-05 -1.8063321e-05 2.0122074e-05 4.6346293e-05
0002a0 19 d3 e3 b6 4c d1 8e b8 c3 ba ac 38 42 89 68 38
       -6.789702e-06 -6.810072e-05 8.236386e-05 5.544094e-05
0002b0 a8 26 1e 36 a6 51 26 b8 7d 1d e0 3d c3 0f 7e 38
       2.3566336e-06 -3.9653525e-05 0.109431244 6.0573e-05
0002c0 46 eb 08 b8 ff 34 0b 3e 43 39 db 3b d0 a0 b1 b7
       -3.2644042e-05 0.13594435 0.0066901757 -2.1174928e-05
0002d0 1e 03 9b 3d 2a 51 a8 b7 0d ee ec 38 cd fa 85 38
       0.07568954 -2.0064956e-05 0.00011297697 6.3886495e-05
0002e0 46 29 c6 36 70 53 90 38 d0 bd 06 b8 24 bd ed 37
       5.9056647e-06 6.8819965e-05 -3.2124866e-05 2.8340677e-05
0002f0 ee a1 24 b7 8a 94 88 37 86 26 63 36 d9 7f 0b 37
       -9.812864e-06 1.6281632e-05 3.384806e-06 8.3148125e-06
000300 40 76 6d b7 3a 5b 0b 39 a9 e4 0d 36 54 2e a7 37
       -1.4153833e-05 0.00013290058 2.1143735e-06 1.9929525e-05
000310 f1 23 c5 b7 00 73 fc b7 78 c7 ee 39 fc e7 89 b7
       -2.3500967e-05 -3.0094292e-05 0.00045543513 -1.6439699e-05
000320 48 f9 03 b8 80 bb fe 35 9a 73 10 b8 4a 01 9d 37
       -3.1464995e-05 1.8979044e-06 -3.4439938e-05 1.8716459e-05
000330 0c 44 69 b8 3d 53 85 b8 ee e9 9f b8 3e 73 20 b8
       -5.5614903e-05 -6.3574385e-05 -7.6252836e-05 -3.82543e-05
000340 70 28 db b7 00 b8 3b 33 18 74 2f 38 b0 f7 e9 b8
       -2.6125665e-05 4.3706677e-08 4.1831372e-05 -0.00011156441
000350 65 46 06 b9 40 79 44 b7 46 71 39 38 80 89 6e b4
       -0.0001280546 -1.1710741e-05 4.421293e-05 -2.22155e-07
000360 28 2f 3b b6 e4 f0 9c b8 4a b9 ce 3d f0 86 5c b7
       -2.789262e-06 -7.483529e-05 0.10093935 -1.3144439e-05
000370 cf ee 3a b6 2f 1b 2b be a9 76 13 3f 48 93 36 36
       -2.7855165e-06 -0.16709588 0.57602936 2.7205842e-06
000380 c6 fd 34 bb a4 a2 29 3e 3d 67 4d 3e 7b 98 65 37
       -0.002761708 0.16565949 0.20058914 1.3684966e-05
000390 a8 fe 74 b7 78 ff 9d 38 e8 b4 43 bc 5e 18 60 38
       -1.4602825e-05 7.533928e-05 -0.011944987 5.3428455e-05
0003a0 97 17 6b b8 75 2c 7c 37 68 f0 d6 36 3e 4f 25 37
       -5.6050336e-05 1.5030721e-05 6.405684e-06 9.853216e-06
0003b0 da 53 b9 b8 d8 92 e8 b7 29 bd 4d b8 62 af 3e b7
       -8.837106e-05 -2.7724935e-05 -4.9051978e-05 -1.1365717e-05
0003c0 cf 82 6a 37 2e 8a 10 b8 86 71 0e b8 2a ee 0a b8
       1.3977943e-05 -3.4460965e-05 -3.3961165e-05 -3.312357e-05
0003d0 2d 7a a4 37 37 ec 39 b7 26 cb 85 b8 f2 68 15 38
       1.9607216e-05 -1.1081857e-05 -6.3797735e-05 3.5622106e-05
0003e0 ea 48 14 b8 02 19 54 3b bb e9 46 38 10 25 db b5
       -3.5353856e-05 0.0032363539 4.7424557e-05 -1.6327558e-06
0003f0 7f 30 92 3c 83 74 66 b7 2b 7f 9f b8 f1 cb 94 b7
       0.01784539 -1.3736196e-05 -7.605398e-05 -1.7737942e-05

linear_tanh_stack.4.bias f4 [24]
000000 c0 a0 8e 37 3c f0 bd b7 38 04 d6 b6 54 15 87 b7
       1.7002574e-05 -2.2642424e-05 -6.378188e-06 -1.6103186e-05
000010 f8 8e 84 37 9e ec 47 37 02 ce 7e b7 71 a0 a6 b7
       1.5802201e-05 1.1916416e-05 -1.5187545e-05 -1.9863453e-05
000020 58 ee 42 b6 cb ad 92 b9 89 ac 7f b7 9c e3 90 3c
       -2.9046987e-06 -0.00027976776 -1.5239356e-05 0.017686658
000030 ed 2e b8 37 a4 b1 98 b7 30 28 8d b7 61 7a c0 b7
       2.195636e-05 -1.8202532e-05 -1.6827224e-05 -2.294517e-05
000040 d8 f6 f0 b7 e6 55 36 37 40 12 a6 35 21 48 6d b7
       -2.8725175e-05 1.0868045e-05 1.2373275e-06 -1.4143095e-05
000050 39 f6 8e 37 1a 56 0a bd 81 b8 ac 3d c6 df 22 bc
       1.7042375e-05 -0.03377352 0.08433629 -0.009941047

linear_tanh_stack.6.weight f4 [1, 24]
000000 d8 9a 2f b7 34 07 3d bd 42 0a 63 b5 c5 ce 39 35
       -1.0466865e-05 -0.046149448 -8.4579017e-07 6.921876e-07
000010 86 a9 a0 b6 6e 99 85 36 00 d7 b0 b5 eb b8 37 be
       -4.7881067e-06 3.9815704e-06 -1.3175595e-06 -0.17941634
000020 54 52 37 36 54 4e 9e be 13 65 21 bd 11 bb e3 bd
       2.7317046e-06 -0.30919135 -0.039403033 -0.111196645
000030 6f 81 a6 3d 3c 04 34 b7 f0 0c 65 35 7a d0 21 b7
       0.08130156 -1.0729822e-05 8.5327974e-07 -9.6448875e-06
000040 30 61 e3 34 28 00 81 3d cf 60 f3 3d b3 62 86 bc
       4.2352758e-07 0.06298858 0.11883699 -0.016404485
000050 77 1d 1d 3d b2 ff db bc 2e 22 c0 3e 34 db 70 3f
       0.038358178 -0.026855323 0.37526077 0.9408448
